…
 'transformer_nheads': 4,
 'transformer_nlayers': 2,
 'undirected': False,
 'use_input_features': False,
 'val_fold_index': None,
 'vocab_path': '/data/knu_hr/project/final/vocab/',
 'warmup_epochs': 2.0}
Loading data
Warning: 288 SMILES are invalid.
Number of tasks = 1
Fold 0
Current execution time: 2024-11-20 19:34:01
Splitting data with seed 42
Total size = 386,259 | train size = 270,381 | val size = 38,626 | test size = 77,252
Fitting scaler
Building model 0
InteractionModel(
  (smiles_transformer): Drug_Encoder(
    (pe): PositionalEncoding(
      (dropout): Dropout(p=0.1, inplace=False)
    )
    (drug_embedding): Embedding(2588, 64)
    (lin): Linear(in_features=64, out_features=300, bias=True)
    (LN): LayerNorm((300,), eps=1e-05, elementwise_affine=True)
    (dropout): Dropout(p=0.1, inplace=False)
    (transformer_encoderlayer): TransformerEncoderLayer(
      (self_attn): MultiheadAttention(
        (out_proj): NonDynamicallyQuantizableLinear(in_features=64, out_features=64, bias=True)
      )
      (linear1): Linear(in_features=64, out_features=512, bias=True)
      (dropout): Dropout(p=0.1, inplace=False)
      (linear2): Linear(in_features=512, out_features=64, bias=True)
      (norm1): LayerNorm((64,), eps=1e-05, elementwise_affine=True)
      (norm2): LayerNorm((64,), eps=1e-05, elementwise_affine=True)
      (dropout1): Dropout(p=0.1, inplace=False)
      (dropout2): Dropout(p=0.1, inplace=False)
    )
    (transformer_encoder): TransformerEncoder(
      (layers): ModuleList(
        (0-1): 2 x TransformerEncoderLayer(
          (self_attn): MultiheadAttention(
            (out_proj): NonDynamicallyQuantizableLinear(in_features=64, out_features=64, bias=True)
          )
          (linear1): Linear(in_features=64, out_features=512, bias=True)
          (dropout): Dropout(p=0.1, inplace=False)
          (linear2): Linear(in_features=512, out_features=64, bias=True)
          (norm1): LayerNorm((64,), eps=1e-05, elementwise_affine=True)
          (norm2): LayerNorm((64,), eps=1e-05, elementwise_affine=True)
          (dropout1): Dropout(p=0.1, inplace=False)
          (dropout2): Dropout(p=0.1, inplace=False)
        )
      )
    )
  )
  (prot_transformer): Protein_Encoder(
    (pe): PositionalEncoding(
      (dropout): Dropout(p=0.1, inplace=False)
    )
    (prot_embedding): Embedding(4116, 64)
    (lin): Linear(in_features=64, out_features=300, bias=True)
    (LN): LayerNorm((300,), eps=1e-05, elementwise_affine=True)
    (dropout): Dropout(p=0.1, inplace=False)
    (transformer_encoderlayer): TransformerEncoderLayer(
      (self_attn): MultiheadAttention(
        (out_proj): NonDynamicallyQuantizableLinear(in_features=64, out_features=64, bias=True)
      )
      (linear1): Linear(in_features=64, out_features=512, bias=True)
      (dropout): Dropout(p=0.1, inplace=False)
      (linear2): Linear(in_features=512, out_features=64, bias=True)
      (norm1): LayerNorm((64,), eps=1e-05, elementwise_affine=True)
      (norm2): LayerNorm((64,), eps=1e-05, elementwise_affine=True)
      (dropout1): Dropout(p=0.1, inplace=False)
      (dropout2): Dropout(p=0.1, inplace=False)
    )
    (transformer_encoder): TransformerEncoder(
      (layers): ModuleList(
        (0-1): 2 x TransformerEncoderLayer(
          (self_attn): MultiheadAttention(
            (out_proj): NonDynamicallyQuantizableLinear(in_features=64, out_features=64, bias=True)
          )
          (linear1): Linear(in_features=64, out_features=512, bias=True)
          (dropout): Dropout(p=0.1, inplace=False)
          (linear2): Linear(in_features=512, out_features=64, bias=True)
          (norm1): LayerNorm((64,), eps=1e-05, elementwise_affine=True)
          (norm2): LayerNorm((64,), eps=1e-05, elementwise_affine=True)
          (dropout1): Dropout(p=0.1, inplace=False)
          (dropout2): Dropout(p=0.1, inplace=False)
        )
      )
    )
  )
  (relu): ReLU()
  (hidden_norm): LayerNorm((300,), eps=1e-05, elementwise_affine=True)
  (do): Dropout(p=0.1, inplace=False)
  (fc_mg): Linear(in_features=2048, out_features=300, bias=True)
  (encoder): MPN(
    (encoder): ModuleList(
      (0): MPNEncoder(
        (dropout_layer): Dropout(p=0.1, inplace=False)
        (act_func): ReLU()
        (W_i): Linear(in_features=147, out_features=300, bias=False)
        (W_h): Linear(in_features=300, out_features=300, bias=False)
        (W_o): Linear(in_features=433, out_features=300, bias=True)
      )
    )
  )
  (sps_embedding): Embedding(74, 128)
  (conv_in): Conv1d(70, 64, kernel_size=(1,), stride=(1,))
  (convs): ModuleList(
    (0-2): 3 x Conv1d(128, 256, kernel_size=(7,), stride=(1,), padding=(3,))
  )
  (cnn_fc): Linear(in_features=8192, out_features=300, bias=True)
  (norm): LayerNorm((64,), eps=1e-05, elementwise_affine=True)
  (Final_FC): ModuleList(
    (0): Linear(in_features=600, out_features=128, bias=True)
    (1): Linear(in_features=128, out_features=64, bias=True)
    (2): Linear(in_features=64, out_features=32, bias=True)
    (3): Linear(in_features=32, out_features=1, bias=True)
  )
)
Number of parameters = 5,095,441
Moving model to cuda
Epoch 0
Model 0 Validation mse = 1.555840
Model 0 Validation rmse = 1.247333
Model 0 Validation r2 = 0.280636
Model 0 Validation ci = 0.746360
Epoch 1
Model 0 Validation mse = 1.625412
Model 0 Validation rmse = 1.274917
Model 0 Validation r2 = 0.248469
Model 0 Validation ci = 0.775794
Epoch 2
Model 0 Validation mse = 1.317029
…
